model_xxx/model.pth (torch, 370460 bytes, 12 tensors)

embedding.weight f4 [61, 100]
0	0xbf6b8782	-0.92003644
1	0xbf5c7421	-0.861147
2	0xbf21d433	-0.63214415
3	0x3f438337	0.7637209
4	0xbf9072b5	-1.1285006
5	0xbdbefd50	-0.09325659
6	0xbf2b41d7	-0.6689734
7	0xbe32662b	-0.17421786
8	0xbe387a29	-0.1801535
9	0xbf5cfffd	-0.8632811
10	0xbf99b3b9	-1.2007972
11	0x3f9f116b	1.242719
12	0xbf87884d	-1.0588471
13	0xbf950464	-1.1641965
14	0x3f46e282	0.77689373
15	0x401ae863	2.4204338
16	0xbea3862f	-0.3193831
17	0xbf61c6a2	-0.88193715
18	0x3f42cd1c	0.7609422
19	0x3f9f146c	1.2428107
20	0xbf981700	-1.1882019
21	0xbf46f4ca	-0.7771727
22	0xbf594a3c	-0.848789
23	0xbd8e3476	-0.069436
24	0x3dca4d19	0.098779865
25	0x3eb8f9fb	0.3612822
26	0x3dab31f2	0.08359136
27	0x3d812125	0.0630515
28	0xbff6e846	-1.9289634
29	0x3f005ead	0.50144464
30	0xbe97b27a	-0.29628354
31	0x3efac903	0.48981485
32	0x3f26f399	0.6521545
33	0xbf759a14	-0.9593823
34	0x3faa9b4a	1.332864
35	0xbf214b7c	-0.63005805
36	0x3f7436ef	0.9539632
37	0x3fd432e0	1.6578026
38	0x3ec92237	0.39283916
39	0x3fe87c0d	1.8162857
40	0x3e04f8f3	0.12985592
41	0x3e919741	0.2843571
42	0x40061efe	2.0956416
43	0xbcc01ce0	-0.023451269
44	0xbfa82ca6	-1.3138626
45	0x3e468824	0.19387871
46	0x3efda924	0.49543107
47	0xbd5931f8	-0.05302617
48	0x3f342f6f	0.7038488
49	0x4006c349	2.1056693
50	0x3e2469a0	0.16055918
51	0xbeebe115	-0.4607016
52	0xbfe4ef41	-1.7885514
53	0xbf02ff95	-0.5117124
54	0xbf7229cd	-0.9459503
55	0x3eaf39fb	0.34223923
56	0xc0060260	-2.093895
57	0x3fbb8b71	1.4651929
58	0xbf288fc9	-0.658444
59	0xbf84dffb	-1.0380853
60	0xbf9461ac	-1.1592307
61	0xbfb5cbfb	-1.4202875
62	0xbfd6d7e6	-1.6784637
63	0xbf87baa9	-1.0603839
64	0x3dc8057a	0.097666696
65	0xc01560a4	-2.3340235
66	0xbed50193	-0.41602764
67	0xbea1b22d	-0.3158125
68	0x3fa3b7ad	1.2790428
69	0x3f20a4b1	0.627513
70	0xbef06511	-0.46952108
71	0x3f3a4a0c	0.72769237
72	0x3faf378f	1.368883
73	0xbfaab42b	-1.3336233
74	0x3e14a145	0.14514644
75	0x3eb09c10	0.34494066
76	0xbebf92e8	-0.37416768
77	0x3fd9ecf0	1.7025433
78	0xbe4fefea	-0.20306364
79	0xbe163d4d	-0.14671822
80	0xbf1ab364	-0.6042998
81	0xbfaf544d	-1.3697602
82	0xbf2c6fb2	-0.67357934
83	0xbf10c24f	-0.5654649
84	0xbf61c451	-0.8819018
85	0xbf06a101	-0.5258942
86	0x401dcc34	2.4655886
87	0xbf509566	-0.81477964
88	0x3f5f5b38	0.87248564
89	0x3e94c078	0.29053092
90	0xbed8ab2a	-0.42318088
91	0xc01c90f6	-2.4463477
92	0x3f33c27b	0.7021863
93	0x3f5cb224	0.8620932
94	0x3db8cf9d	0.09023974
95	0x3f81cbf0	1.0140362
96	0xbf26a12f	-0.65089697
97	0x3f62bf54	0.88573194
98	0x3f64ef9a	0.894281
99	0x3d0229f6	0.0317783
100	0xbf13631b	-0.575731
101	0x3d0136a7	0.03154626
102	0xbf9b6839	-1.2141181
103	0x3fa07c72	1.2537978
104	0x3f458860	0.77161217
105	0xbf06df97	-0.5268492
106	0x3f517f28	0.8183465
107	0xbecf6fc5	-0.4051496
108	0xbd22d081	-0.039749626
109	0xbf1b78b9	-0.60731083
110	0x3f7ccd9a	0.98751223
111	0xbeeeb7a4	-0.46624482
112	0xbfc8362b	-1.5641531
113	0x3f6a3f10	0.91502476
114	0x3f11a99c	0.5689943
115	0xbdda9c9d	-0.10674403
116	0x401a6cd7	2.412893
117	0x3f4eaf5b	0.8073632
118	0x3e8bde04	0.27317822
119	0x3d3b4507	0.045720126
120	0xc0260e64	-2.5946283
121	0x3fc09ab5	1.5047213
122	0xbf87648c	-1.057756
123	0x3fa070e8	1.2534456
124	0xc03e657d	-2.9749444
125	0xbf25ee84	-0.6481707
126	0x3ea1622e	0.31520218
127	0xbe331d59	-0.17491664
128	0xbf18419a	-0.594751
129	0xbf27e010	-0.6557627
130	0x3f6103d9	0.87896496
131	0xbecda0a5	-0.40161625
132	0x3fc49521	1.535801
133	0x3dbe17a1	0.092818506
134	0x3f7a1baa	0.9769846
135	0xbfac0600	-1.3439331
136	0xbf02649d	-0.50934774
137	0xbc89a55e	-0.016802486
138	0x3eccd8d5	0.4000918
139	0x3f3191e2	0.69363225
140	0xbe7fe76b	-0.24990623
141	0x3e03ab9e	0.12858436
142	0x3efc5cea	0.49289638
143	0xbf327d3a	-0.6972233
144	0xc010c3f5	-2.2619603
145	0x3fa8fbbd	1.3201824
146	0x3f0ff25b	0.5622918
147	0xbf8b02c4	-1.0860219
148	0xbf9696af	-1.1764735
149	0xbe4c73b9	-0.1996602
150	0x3f39c983	0.7257311
151	0xbf4f08be	-0.80872715
152	0xbf2e7a72	-0.68155587
153	0xc0068df5	-2.1024144
154	0xbf07af46	-0.5300182
155	0xbe98e873	-0.29864845
156	0x3f4aae7a	0.7917248
157	0x3fb1c8d2	1.388941
158	0xbf5e10e2	-0.8674451
159	0xbff405f3	-1.9064316
160	0xbe777b69	-0.24168171
161	0xc04ed932	-3.2320065
162	0xbfe3f865	-1.7810179
163	0x3f88da1a	1.0691559
164	0xbfb54d85	-1.4164282
165	0xbf694c39	-0.9113193
166	0x3f9de8d0	1.2336674
167	0xbf841b2f	-1.0320796
168	0x3f8af486	1.0855873
169	0x3d293be1	0.04131687
170	0x3e99f6f3	0.3007122
171	0xbdd67894	-0.10472217
172	0x3f6150ab	0.88013715
173	0x3dffca79	0.124897905
174	0x3f37658c	0.71639323
175	0xbe97f32d	-0.29677716
176	0x3fddbe31	1.7323667
177	0x3fbbf8ee	1.4685342
178	0x3f1565d1	0.58358485
179	0x3faf18af	1.3679408
180	0x3f3b0c9f	0.73066133
181	0xbf1e96be	-0.61948764
182	0x3fad6d4e	1.3548982
183	0x3eef5aa0	0.4674883
184	0xbf5ca1ba	-0.86184275
185	0x4008cec4	2.13762
186	0xbf52bdc3	-0.82320803
187	0x3e079a3a	0.13242427
188	0xbed71feb	-0.4201654
189	0x3f23aff7	0.63940376
190	0xbef4c667	-0.4780762
191	0xbf388f6c	-0.72093844
192	0xbf666d33	-0.90010375
193	0xbda5f2c3	-0.08102944
194	0xbf2569d6	-0.6461462
195	0xbf88f0d1	-1.0698491
196	0xbf04b16a	-0.5183321
197	0xbf5760af	-0.841319
198	0x3e589596	0.21150813
199	0x3f3a451e	0.72761714
200	0xbeed5fcf	-0.4636216
201	0x3e3c14e5	0.18367346
202	0xbd3d99ea	-0.046289362
203	0xbea01a50	-0.31270075
204	0xbf74a7a7	-0.9556832
205	0x3f259266	0.6467651
206	0xbe027b4d	-0.12742348
207	0xbf90bc78	-1.1307516
208	0xbfb7299e	-1.4309576
209	0x3da1e8dd	0.07905743
210	0x3f07692d	0.5289486
211	0x3f32fdbb	0.6991841
212	0xbffec673	-1.9904312
213	0x3f781368	0.9690461
214	0xbd9f1c88	-0.07769114
215	0xbecef1cf	-0.4041886
216	0x3fd0ac2e	1.6302545
217	0x3f2425f0	0.6412039
218	0xbf1d6e54	-0.6149647
219	0xbe18f6f3	-0.14937954
220	0x3ef6f303	0.48232278
221	0x3fe3d4d2	1.7799323
222	0xbf00e0c8	-0.5034299
223	0xbfe7a59f	-1.8097419
224	0x3e7c3add	0.2463183
225	0xbf7de877	-0.9918284
226	0xbfb59e36	-1.4188907
227	0x3f9128ec	1.1340613
228	0x3f7527ca	0.9576384
229	0xbf70f52f	-0.9412412
230	0xbf9703d9	-1.1798049
231	0x3f07a902	0.5299226
232	0xbf8486b9	-1.0353614
233	0xbee953a5	-0.45571628
234	0x3fb32f13	1.3998741
235	0x3e3e39b6	0.18576702
236	0x3e41696e	0.18887874
237	0x40055013	2.0830123
238	0x3e9d520a	0.30726653
239	0xbfcb1c3b	-1.586799
240	0x3e0cf8f3	0.13766842
241	0xbd8edbca	-0.06975515
242	0x3f82c9a8	1.0217791
243	0xbeb58083	-0.3544961
244	0xbfec8c28	-1.8480272
245	0xbf17b98a	-0.59267485
246	0x3f51ba0f	0.8192453
247	0x3e9f2e38	0.3108995
248	0x3ea2bb55	0.31783548
249	0xc02fda3d	-2.7476952
250	0x3f42ad5f	0.76045793
251	0x3f38b8aa	0.72156775
252	0xbf3c4ebc	-0.7355764
253	0xbfbcc7da	-1.474849
254	0xbf66c370	-0.90141964
255	0x3f90f468	1.1324587

rnn.weight_ih_l0 f4 [256, 100]
0	0x3d7c53f1	0.06160349
1	0xbde9bbf9	-0.11412806
2	0xbe0b3b89	-0.1359693
3	0xbda50570	-0.08057678
4	0xbd3df7a1	-0.046378735
5	0x3cdc0392	0.026857171
6	0x3c7dd630	0.015492961
7	0x3db9e7d4	0.09077421
8	0x3c0531dd	0.008129564
9	0xbdaf1ef0	-0.08550823
10	0xbc48d3c6	-0.012257522
11	0xbdce3398	-0.100684345
12	0x3dc9a849	0.09846551
13	0xbac4c39a	-0.0015011907
14	0x3da9fdaa	0.08300336
15	0xbdde4aaf	-0.108540885
16	0xbd222c5d	-0.03959309
17	0xbd783f5e	-0.060607307
18	0xbbfdfda1	-0.007751182
19	0xbc63f568	-0.01391349
20	0xbda840e6	-0.082155034
21	0xbb7af7b3	-0.0038294613
22	0x3d919792	0.07108988
23	0xbd60ef37	-0.054915633
24	0x3e09a031	0.13440014
25	0xbd6adedb	-0.057341438
26	0x3e0ac4ad	0.13551588
27	0x3da8c3a8	0.082404435
28	0x3dd617ac	0.10453734
29	0xbdadcd3d	-0.08486412
30	0x3ce36e50	0.027762562
31	0xbdb4f2e7	-0.088353924
32	0xbd4e99c8	-0.050439626
33	0xbd88200b	-0.06646737
34	0x3dc5c27e	0.09656237
35	0x3db3d919	0.087816425
36	0xbd42ac4f	-0.047527608
37	0xbd9b9ace	-0.07597886
38	0xbda37b5c	-0.07982513
39	0x3de67d12	0.11254324
40	0xbddb0ebd	-0.106961705
41	0xbd9f85b4	-0.07789174
42	0xbd93ada8	-0.07210857
43	0x3d80ec8b	0.06295117
44	0x3d33ff25	0.043944497
45	0xbdf5c6c6	-0.12000804
46	0xbd699f5c	-0.057036743
47	0xbdd169fc	-0.10225293
48	0x3dc06a99	0.09395332
49	0xbd2d19dc	-0.04226099
50	0x3d9b0594	0.07569423
51	0xb93818d9	-0.00017556864
52	0x3a8cd427	0.0010744379
53	0xba9897e7	-0.001164195
54	0x3e002b07	0.12516414
55	0xbc752a70	-0.014963731
56	0xbd9cc1a7	-0.07654124
57	0xbd8ee148	-0.06976563
58	0x3db2adaf	0.08724534
59	0xbc9f548b	-0.019449493
60	0x3d9ac63f	0.07557344
61	0xbd74fa13	-0.0598088
62	0xbd896813	-0.06709304
63	0xbe07a658	-0.13247049
64	0xbca9135f	-0.02063912
65	0x3c1849c4	0.009294931
66	0x3db7298b	0.089434706
67	0xbda715d7	-0.081584625
68	0x3ca92307	0.020646585
69	0x3dba6384	0.09101012
70	0x3cc56ad6	0.024098795
71	0x3d88728c	0.06662473
72	0x3c3e995a	0.011633242
73	0x3d5f0684	0.054449573
74	0xbcbcc842	-0.02304471
75	0x3c9bc3b6	0.01901422
76	0xbd01234a	-0.031527795
77	0x3d4fd9ae	0.050744705
78	0xbbcdc065	-0.0062790387
79	0xbdcb77e7	-0.09934979
80	0xbbb3a9c9	-0.0054828865
81	0x3df7be6f	0.12096869
82	0xbdabeb32	-0.08394469
83	0x3d781360	0.060565352
84	0x3d2ea91b	0.04264174
85	0xbe1004e0	-0.1406436
86	0x3dc3575f	0.09538149
87	0x3dca96fd	0.0989208
88	0xba91abec	-0.0011113859
89	0x3de431f5	0.11142341
90	0xbda4f5d8	-0.080547035
91	0xbd4af37a	-0.049548604
92	0xbd4d3f39	-0.050109122
93	0xbca4d39a	-0.02012043
94	0x3d696287	0.05697873
95	0x3d802e23	0.062588
96	0x3c1b9895	0.009496828
97	0xbca0b011	-0.019615205
98	0x3d7fe683	0.062475692
99	0xbd89e7e0	-0.0673368
100	0xbd3090fd	-0.04310702
101	0xbd576d13	-0.052594256
102	0xbdce36cc	-0.100690454
103	0xbe060b33	-0.1309021
104	0xbd8317e8	-0.06401044
105	0x3e146a43	0.1449366
106	0xbd83628c	-0.06415281
107	0xbd5363b7	-0.051608767
108	0xbe0ba911	-0.13638712
109	0xbd8b265d	-0.067944266
110	0x3de6dc5a	0.112724975
111	0x3dbcc8e3	0.092180036
112	0x3d4c2018	0.049835294
113	0x3d301304	0.042986885
114	0xbd510524	-0.051030293
115	0x3a4aaebb	0.00077317253
116	0xbd25ca46	-0.040476106
117	0x3da3a050	0.079895616
118	0xbde4a43e	-0.11164139
119	0x3cf9667a	0.030444372
120	0x3bbe42be	0.005806296
121	0x3d9db1ab	0.07699903
122	0xbdd493b2	-0.10379733
123	0xbcf41b68	-0.029798225
124	0xbdc376e4	-0.09544161
125	0xbdec7477	-0.115456514
126	0xbd0ff20a	-0.035142936
127	0x3e0b99e2	0.1363292
128	0xbb9a0c6d	-0.0047011883
129	0xbd63a4df	-0.055577155
130	0xbda2fcc3	-0.07958367
131	0xbdfe1fa7	-0.12408381
132	0x3cacecb8	0.02110897
133	0x3df8437a	0.12122245
134	0xbd776508	-0.060399085
135	0xbd2335f4	-0.039846376
136	0x3e10738d	0.14106579
137	0x3dd64e63	0.1046417
138	0xbdb7915b	-0.08963271
139	0xbda218f9	-0.079149194
140	0xbd9a10e0	-0.0752275
141	0x3db18f0d	0.08669863
142	0x3ddd6aa9	0.108113594
143	0xbd160140	-0.036622286
144	0xbdc4e1f4	-0.0961341
145	0x3d1fbd2a	0.03899876
146	0xbd1fcd7d	-0.03901433
147	0xbdd7b7ee	-0.10533129
148	0xbd1324ae	-0.035923652
149	0x3d9b89c0	0.07594633
150	0x3dc7e795	0.09760968
151	0x3d8afd18	0.06786555
152	0xbcacfdfd	-0.021117205
153	0x3da24e03	0.07925036
154	0xbceeef47	-0.02916683
155	0xbc7bf2bf	-0.015377699
156	0x3cff801c	0.031189017
157	0x3d784d78	0.060620755
158	0x3d709cce	0.05874329
159	0x3dacdffd	0.0844116
160	0xbe15656d	-0.14589472
161	0xbdd9f4c5	-0.10642389
162	0x3d1b0e8d	0.037855674
163	0x3e09fa1e	0.13474318
164	0x3ceebc49	0.029142516
165	0xbbba7b8c	-0.0056909975
166	0x3dece266	0.115666196
167	0xbc78c0be	-0.015182672
168	0x3d50f6e6	0.05101671
169	0xbda23371	-0.07919968
170	0x3c832cb8	0.016012534
171	0x3d6dd330	0.058062732
172	0x3db98700	0.09058952
173	0x3c8f5085	0.01749445
174	0x3da37444	0.0798116
175	0xbd0abf48	-0.033873826
176	0x3deff7cd	0.11717186
177	0xbd81048e	-0.06299697
178	0x3dd2b527	0.10288458
179	0x3dc00c8d	0.09377394
180	0xbd91ecf0	-0.0712527
181	0x3ca96075	0.020675877
182	0xbc42e5f4	-0.011895645
183	0xbdf2bcc5	-0.11852411
184	0xbd20f1a8	-0.03929296
185	0xbd42c8d7	-0.047554817
186	0xbdf40dce	-0.119166955
187	0xbd88a99d	-0.06672976
188	0x3dc8750a	0.097879484
189	0xbd08ea95	-0.03342684
190	0x3d8e9198	0.069613636
191	0xbdd98a12	-0.10622038
192	0xbdaf4805	-0.085586585
193	0xbdcecb97	-0.100974254
194	0xbd8f4494	-0.06995502
195	0x3ca2e0da	0.019882608
196	0xbd6971b1	-0.05699319
197	0xbde9bc86	-0.11412911
198	0x3dbbc8da	0.09169169
199	0x3db9a369	0.09064371
200	0x3dc6f4da	0.097146705
201	0xbdc7ba17	-0.09752291
202	0xbddcffc1	-0.10790969
203	0x3e042b7f	0.12907217
204	0x3d03a3f9	0.0321388
205	0x3ca6a1fd	0.020340914
206	0xbd7fe704	-0.062476173
207	0x3dbb7f11	0.09155095
208	0x3d9927c0	0.07478285
209	0x3d4ad864	0.049522772
210	0x3da1abd6	0.07894103
211	0x3e04d8eb	0.12973373
212	0x3cd9f29c	0.026604943
213	0xbd461509	-0.048359904
214	0x3d4de4ab	0.050266903
215	0x3cb86622	0.022509638
216	0xbe04bb20	-0.12962008
217	0xbc6b6de4	-0.014369462
218	0x3d595058	0.053055137
219	0x3d444a57	0.04792246
220	0xbb93b68f	-0.0045078467
221	0x3d8aefa4	0.06783989
222	0x3dba281e	0.09089683
223	0x3dd124ca	0.10212095
224	0x3bc466b1	0.005993687
225	0xbdb9cd1d	-0.090723254
226	0xbcf38b18	-0.029729411
227	0x3db64f19	0.089018054
228	0xbc81abb6	-0.015828948
229	0x3dc1d514	0.094644696
230	0x3de83f15	0.11340157
231	0xbd99a3aa	-0.075019196
232	0x3e0b288c	0.13589686
233	0xbd3bbe7d	-0.04583596
234	0x3c941a46	0.018078934
235	0x3d21b127	0.039475586
236	0x3db7ce50	0.08974898
237	0x3c81010f	0.015747575
238	0x3de8e2f1	0.11371411
239	0x3b990fd6	0.0046710772
240	0xbda47598	-0.08030242
241	0x3d32a438	0.043613642
242	0xbdeefa29	-0.11668808
243	0x3d3e3764	0.046439543
244	0x3c3bf6c0	0.011472404
245	0xbdcc284a	-0.09968622
246	0x3da88b7a	0.08229728
247	0xbdc3e168	-0.09564477
248	0x3d2e99bc	0.04262708
249	0x3d8dd607	0.06925588
250	0x3d77aca0	0.060467362
251	0x3d6dbdc8	0.058042318
252	0x3c8a0bbb	0.016851297
253	0x3b69aa8e	0.0035654637
254	0x3df3a5a9	0.118968315
255	0xbba014d8	-0.0048852973

rnn.weight_hh_l0 f4 [256, 64]
0	0xbba7e2b8	-0.0051234625
1	0x3caa2568	0.02076979
2	0x3ce5a628	0.028033331
3	0x3d2e8a2e	0.042612247
4	0x3d3fc729	0.046820793
5	0x3da0eb5c	0.07857391
6	0xbba050ab	-0.004892429
7	0xbd525750	-0.0513528
8	0x3dd765ad	0.1051744
9	0xbd7d4fbe	-0.061843626
10	0x3d92180a	0.07133491
11	0xbd27e586	-0.040990375
12	0x3dc4d24b	0.09610423
13	0x3dc96fa2	0.098357454
14	0x3d98409b	0.074341975
15	0xbd9a921b	-0.07547399
16	0x3dda661e	0.106640086
17	0xbd4d5c72	-0.05013699
18	0x3cdb47ee	0.026767697
19	0x3ce2b0eb	0.027672252
20	0x3e049d34	0.12950593
21	0x3d63e1dd	0.055635322
22	0xbd29cd38	-0.041455477
23	0x3d1dec98	0.03855571
24	0xbdef5360	-0.116858244
25	0x3c89208f	0.016739158
26	0x3dc58916	0.09645288
27	0x3dd44157	0.10364025
28	0xbdbde1f6	-0.09271614
29	0xbdcad57d	-0.09904001
30	0x3dae1a12	0.08501066
31	0x3d5eb9f4	0.054376557
32	0xbb2a0835	-0.0025944833
33	0x3df4ce54	0.119534165
34	0x3b826f68	0.003980566
35	0x3db2cd17	0.08730524
36	0x3cad48ca	0.021152873
37	0x3cea4311	0.028596433
38	0x3d95dad9	0.073171325
39	0xbd5b6d7a	-0.0535712
40	0x3d83a13b	0.06427237
41	0xbd939215	-0.07205597
42	0x3caea05c	0.0213167
43	0x3da5aa89	0.080891676
44	0xbdfd313e	-0.12362908
45	0x3d2ce19e	0.042207353
46	0x3dd47af5	0.10375015
47	0x3db1bbd7	0.08678406
48	0x3d1d58af	0.038414653
49	0xbd9932ce	-0.07480393
50	0x3df8445c	0.121224135
51	0x3c733a63	0.014845463
52	0xbd33c034	-0.04388447
53	0x3dc63222	0.09677531
54	0xbd17e1e3	-0.037080657
55	0x3d640b32	0.05567474
56	0xbdd94682	-0.106091514
57	0x3c5baa93	0.013407367
58	0xbe075040	-0.13214207
59	0xbdd734bb	-0.105081044
60	0xbcc419f6	-0.02393816
61	0x3d9f2c93	0.07772174
62	0xbdb83b10	-0.0899564
63	0x3da5cc4b	0.080956064
64	0xbd59a87b	-0.05313919
65	0x3d928931	0.071550734
66	0xbd5aa7da	-0.053382732
67	0xbde98fb0	-0.11404359
68	0xbe03bfd9	-0.12866153
69	0xbcd97d0b	-0.026548883
70	0x3da64873	0.08119287
71	0xbc06481c	-0.008195903
72	0xbe0c354e	-0.13692209
73	0xbdcc5d07	-0.09978681
74	0xbdd27831	-0.10276831
75	0xbcf4bd3a	-0.029875387
76	0x3c5c7f48	0.013458081
77	0xbcddd43c	-0.02707874
78	0xbd596508	-0.053074867
79	0x3d867f1d	0.06567214
80	0x3e045d3d	0.12926193
81	0x3e111dfc	0.14171594
82	0x3d7c7aca	0.06164054
83	0xbde7dbe6	-0.11321239
84	0x3dc02a8e	0.09383117
85	0xbdaf0575	-0.08545963
86	0xbdccb8cf	-0.09996187
87	0x3b631101	0.0034647586
88	0xbdb070cd	-0.08615265
89	0xbdc5b17a	-0.096529916
90	0x3bae8cdb	0.00532685
91	0x3dc6f105	0.097139396
92	0xbd7737dd	-0.06035601
93	0x3d0241a1	0.03180087
94	0x3dc0f01a	0.09420796
95	0x3cb885bd	0.022524709
96	0x3db8da88	0.090260565
97	0x3d938c3c	0.07204482
98	0x3e071a3d	0.13193603
99	0xbd1f7844	-0.038933054
100	0x3dd9b396	0.106299564
101	0xbd2b9c41	-0.041897062
102	0x3d431757	0.04762968
103	0xbdf13884	-0.117783576
104	0x3dac8b43	0.084249996
105	0x3e06c259	0.13160075
106	0xbdca0a90	-0.09865296
107	0xbd9e548d	-0.077309705
108	0xbdfcd4cb	-0.123452745
109	0x3d215abb	0.039393168
110	0xbdc9babd	-0.098500706
111	0x3b615ad2	0.0034386409
112	0xbc0cd37c	-0.008595344
113	0xbd821933	-0.063524626
114	0x3ce373af	0.027765123
115	0xbd56d9a0	-0.052453637
116	0xbd2e64e3	-0.04257668
117	0x3cda2018	0.026626632
118	0x3e001a06	0.12509927
119	0xbdf61478	-0.12015623
120	0x3d9047ce	0.07044946
121	0x3ca2acfd	0.019857878
122	0xbdecccb2	-0.1156248
123	0x3ceeb9ec	0.029141389
124	0x3db210df	0.08694624
125	0xbd736209	-0.059419665
126	0x3dab1256	0.08353107
127	0xbda4185e	-0.0801246
128	0x3dc43911	0.09581197
129	0x3d8e2546	0.06940703
130	0x3d937eec	0.07201943
131	0x3d7f824d	0.062380124
132	0xbc9f1e5e	-0.01942366
133	0x3dd584c4	0.10425714
134	0xbbab772b	-0.005232712
135	0x3da03531	0.078226455
136	0x3d28dad9	0.041224334
137	0x3cde166e	0.027110305
138	0x3d8c64af	0.06855141
139	0xbc141e57	-0.009040437
140	0x3d160f4f	0.036635693
141	0x3da04e6d	0.078274585
142	0x3e05701a	0.13031045
143	0xbdc8c56e	-0.09803282
144	0xbd8ccf2a	-0.06875451
145	0xbb9eaa12	-0.0048420513
146	0x3d583136	0.052781306
147	0x3db71e4b	0.08941325
148	0xbdc7c694	-0.09754673
149	0x3dba4aea	0.0909632
150	0xbdaa6456	-0.08319919
151	0xbdea17b8	-0.11430305
152	0xbdd0bbc6	-0.10192065
153	0xbd3170bb	-0.0433204
154	0x3c9ea579	0.019366013
155	0x3dd37983	0.10325911
156	0xbcdf50ea	-0.027260263
157	0x3ce62439	0.028093444
158	0xbddee4a5	-0.10883454
159	0xbdba44cf	-0.090951554
160	0xbc9abed0	-0.018889815
161	0xbd4fd4f1	-0.050740186
162	0xbd5d0992	-0.053964205
163	0xbdb24051	-0.08703674
164	0xbdde2848	-0.10847527
165	0xbd44bd79	-0.048032258
166	0x3cd47b5c	0.025937729
167	0x3c96a04b	0.01838698
168	0x3d96aa13	0.07356658
169	0xbd26497f	-0.040597435
170	0xbd70eef4	-0.058821633
171	0x3de2c9d3	0.11073651
172	0xbe0b2dc1	-0.13591672
173	0x3d29ce15	0.0414563
174	0x3d6d22c6	0.05789449
175	0x3d8b1a9f	0.06792187
176	0x3c935138	0.017983064
177	0xbcabbfd8	-0.020965502
178	0xbd67cc60	-0.05659139
179	0xbba7b8b5	-0.0051184543
180	0xbd88daad	-0.06682334
181	0xbdcb62f7	-0.099309854
182	0x3e00a7de	0.12564036
183	0xbd5cb52e	-0.053883724
184	0xbd5bed92	-0.05369336
185	0xbd2381a4	-0.039918557
186	0xbd236bcf	-0.039897736
187	0xbd8f6b15	-0.07002846
188	0x3c421b4a	0.0118473265
189	0x3cf6c0a5	0.030121157
190	0x3db6c430	0.089241385
191	0xbd43e8f2	-0.047829576
192	0xbd1f80e2	-0.03894127
193	0x3e053e0c	0.1301195
194	0xbd647d32	-0.055783458
195	0x3ccac671	0.024752827
196	0x3d5b4a27	0.053537514
197	0xbdcf7354	-0.10129419
198	0x3d190df7	0.037366834
199	0x3d882c46	0.066490695
200	0xbd555d5a	-0.05209098
201	0x3c90d2f5	0.017678717
202	0xbb6dae53	-0.0036267235
203	0xbd20acc9	-0.03922728
204	0x3df3124d	0.11868725
205	0x3df03ae1	0.1172998
206	0xbc172ff8	-0.009227745
207	0x3c299a0b	0.010351668
208	0x3df3cb69	0.11904032
209	0x3dc324a3	0.09528472
210	0x3b681a09	0.0035415909
211	0x3d3c2f31	0.045943443
212	0xbe0b935c	-0.13630432
213	0x3d506a6d	0.050882746
214	0x3d2f8a59	0.042856548
215	0xbde9a778	-0.11408895
216	0xb929410c	-0.00016141328
217	0xbc98564a	-0.018595833
218	0xbd2f684f	-0.042824086
219	0xbd466b67	-0.04844227
220	0x3d88295e	0.06648515
221	0xbca6122d	-0.020272339
222	0x3d801be5	0.062553205
223	0xbd33c0a0	-0.043884873
224	0xbdc4586c	-0.09587178
225	0x3ca0c5f3	0.01962564
226	0xbdaf277f	-0.08552455
227	0x3d6161a9	0.055024777
228	0x3d8b987b	0.06816193
229	0x3ca16bdc	0.019704752
230	0xbdd9ad93	-0.1062881
231	0x3ce9c181	0.028534653
232	0xbb7b214c	-0.0038319407
233	0x3dcc9276	0.09988873
234	0x3e05b97d	0.1305904
235	0x3ca46cac	0.02007135
236	0xbdaf59a3	-0.08562019
237	0x3d8f5bd7	0.06999939
238	0xbdbe08ce	-0.09279023
239	0xbda7c8e7	-0.08192616
240	0x3d91f4a6	0.07126741
241	0x3db6151a	0.088907436
242	0x3e020bb5	0.12699778
243	0xbb23b584	-0.0024980018
244	0xbdf7e8b2	-0.1210493
245	0xbdd7235b	-0.105047904
246	0xbd38d48f	-0.045124587
247	0x3cef7498	0.0292304
248	0x3dd35375	0.103186525
249	0xbd329699	-0.043600652
250	0x3d69641b	0.056980234
251	0x3d0d9344	0.03456427
252	0xbc42c0ed	-0.011886817
253	0x3d52455d	0.05133568
254	0xbde2bb9b	-0.11070939
255	0xbcc6fdab	-0.02429088

rnn.bias_ih_l0 f4 [256]
0	0x3d4ad909	0.049523387
1	0xbd69bac2	-0.05706287
2	0xbcedcb65	-0.02902765
3	0xbd3eb744	-0.046561494
4	0x3defe4d3	0.11713567
5	0x3e0068c4	0.12539965
6	0xbc05f52a	-0.008176127
7	0xbd233ff7	-0.039855924
8	0xbdce4356	-0.10071437
9	0x3d46ea3f	0.04856324
10	0x3d187199	0.03721771
11	0xbc678dc6	-0.0141329225
12	0xbdccd51b	-0.10001584
13	0x3cfd34a9	0.0309089
14	0x3daed05a	0.08535834
15	0x3d8c185f	0.06840586
16	0x3d755cc4	0.05990292
17	0xbd627389	-0.055285964
18	0x3c3cf498	0.011532925
19	0x3bb15a0c	0.0054123458
20	0x3df33ef1	0.118772395
21	0x3e0459d9	0.12924899
22	0xbcc8f5ab	-0.024531206
23	0x3b68389f	0.003543414
24	0xbd494178	-0.0491347
25	0x3bd46e90	0.0064829066
26	0x3e043fe9	0.12915005
27	0x3de45214	0.11148468
28	0x3d96192c	0.0732902
29	0xbd66b7fe	-0.056327812
30	0xbd8fa2a4	-0.07013443
31	0x3d9ff11b	0.07809659
32	0x3d3068f8	0.043068856
33	0x3cd20b55	0.02564017
34	0x3dc531fe	0.09628676
35	0x3c845f84	0.016158827
36	0x3bb58831	0.005539917
37	0x3db53b88	0.08849245
38	0xbdbc614e	-0.09198247
39	0xbd26a8f6	-0.040688477
40	0x3d932a9c	0.071858615
41	0x3b9674c0	0.0045915544
42	0x3cb324d0	0.02186814
43	0xbd573997	-0.052545156
44	0x3db55748	0.08854538
45	0x3da3f97b	0.08006569
46	0x3dd161ce	0.10223733
47	0x3da4f3ba	0.080543
48	0x3cd4aff9	0.025962817
49	0x3d8a2c79	0.06746764
50	0x3d971c99	0.073785014
51	0x3d44397a	0.047906376
52	0xbddb9069	-0.107209034
53	0xbe0042dd	-0.12525506
54	0xbdccb237	-0.09994929
55	0x3d5a3ce7	0.053280737
56	0xbdc61a3f	-0.09672975
57	0x3dc4ffb5	0.09619085
58	0xbd3ed7b2	-0.04659242
59	0x3d0219f8	0.031763047
60	0x3dc39ac2	0.09551002
61	0xbdcff2cc	-0.10153732
62	0x3c224b98	0.009905718
63	0xbc0274ac	-0.007962387
64	0x3c8d86ef	0.017276255
65	0x3d61a15b	0.05508552
66	0x3d4dd2af	0.05024975
67	0xbbe4f56d	-0.006987265
68	0xbd09d5be	-0.033651106
69	0x3dc9f5e5	0.09861354
70	0x3dda8331	0.10669554
71	0xbd510dbf	-0.0510385
72	0x3dfe22c0	0.12408972
73	0x3d65db35	0.056117255
74	0xbd3121f1	-0.04324526
75	0x3df7011f	0.12060761
76	0xbdaa73c6	-0.08322863
77	0x3deacc3e	0.11464737
78	0x3d8dab6b	0.06917461
79	0xbdf4843c	-0.11939284
80	0x3d79f336	0.06102296
81	0x3e1022a1	0.1407571
82	0x3d7ec6d3	0.062201332
83	0x3cb45d79	0.022017227
84	0x3d79c776	0.060981236
85	0x3db26be2	0.08711983
86	0xbdaec1ac	-0.08533034
87	0x3e079e98	0.13244092
88	0xbdae9d5a	-0.08526106
89	0x3b56a987	0.0032754855
90	0xbd5f5ef5	-0.054533917
91	0xbdc4f362	-0.09616734
92	0x3d35c33c	0.044375643
93	0xbd254e5f	-0.040357944
94	0x3ce00891	0.027347835
95	0xbdb21d58	-0.08697003
96	0xbc9bbbd9	-0.019010471
97	0x3e140360	0.14454412
98	0xb9e7edb7	-0.00044236865
99	0x3d9bcec7	0.07607799
100	0xbd684bf8	-0.056713074
101	0xbc53126e	-0.012882812
102	0x3db0835d	0.086188056
103	0xbc4dc663	-0.012559506
104	0xbd9e365d	-0.07725213
105	0xbc5fca38	-0.013659053
106	0x3d30fc1a	0.043209173
107	0x3c8574de	0.016291078
108	0x3d556ccb	0.052105706
109	0x3d85587a	0.06511016
110	0xbd2a5ef1	-0.04159445
111	0xbdeeeaa9	-0.116658516
112	0xbcf69b71	-0.030103417
113	0x3da03489	0.0782252
114	0x3d9605f2	0.07325353
115	0xbcb6074f	-0.022220282
116	0xbdbdb69b	-0.09263345
117	0xbe0a33fa	-0.1349639
118	0xbcfbccf1	-0.030737372
119	0xbc971771	-0.018443795
120	0xbdd30c81	-0.10305119
121	0x3dcd7939	0.10032887
122	0x3e09f939	0.13473977
123	0x3d015172	0.031571813
124	0xbcc1fdcc	-0.02368059
125	0x3d3837a3	0.044974934
126	0x3ced6052	0.028976593
127	0x3dd4c24f	0.10388624
128	0x3d4511da	0.048112728
129	0xbd91a867	-0.07112198
130	0xbda73613	-0.08164611
131	0xbdbfcb02	-0.093648925
132	0xbd44f6c0	-0.04808688
133	0xbc4d4582	-0.012528779
134	0xbc66a53c	-0.014077481
135	0x3e02d9c7	0.12778388
136	0xbdbaa1e1	-0.09112907
137	0x3c187824	0.0093059875
138	0xbdccbf89	-0.0999747
139	0xbd05446c	-0.032535955
140	0xbcaef2d0	-0.021356016
141	0xbdb43142	-0.08798458
142	0xbd49b78a	-0.049247302
143	0x3cc22466	0.023698997
144	0x3de76cbe	0.11300038
145	0x3cf5c2af	0.030000059
146	0xbccac6dd	-0.024753029
147	0xbd8f3e55	-0.06994311
148	0x3d4759c2	0.048669584
149	0x3e0a11ca	0.13483348
150	0x3d75fea3	0.060057294
151	0x3c3c17e5	0.011480306
152	0x3da51737	0.080610685
153	0x3d292d20	0.0413028
154	0x3da024a9	0.07819492
155	0x3d81d21f	0.063389055
156	0x3de56090	0.112000585
157	0xbd9310cd	-0.07180939
158	0x3dac5bbf	0.08415937
159	0xbdc9afcb	-0.09847983
160	0xbd5c88c1	-0.053841356
161	0x3dc2d004	0.09512332
162	0x3d83b009	0.064300604
163	0xbd90ea70	-0.070759654
164	0xbd987dde	-0.07445882
165	0x3d25396e	0.040337972
166	0x3dbf4b50	0.093405366
167	0x3d3ca901	0.046059612
168	0x3c1f64a7	0.009728587
169	0xbdc5bd93	-0.09655299
170	0x3e055c58	0.13023508
171	0x3c6a0460	0.01428327
172	0xbdcd9a7a	-0.1003923
173	0xbd2ea63e	-0.04263901
174	0x3daf12a9	0.08548481
175	0xbbb50e4d	-0.0055253864
176	0xbd1851c7	-0.037187364
177	0x3d804fa1	0.06265188
178	0x3d95255b	0.072825156
179	0xbc889845	-0.01667417
180	0xbdf6cfe9	-0.120513745
181	0x3d0ba4b1	0.03409261
182	0x3cdeda6f	0.027203767
183	0xbdce5f36	-0.10076754
184	0x3cf40ff2	0.02979276
185	0x3d5a6b3b	0.05332492
186	0x3dc46aa9	0.09590656
187	0xbd35cefd	-0.044386853
188	0x3db9e29a	0.09076424
189	0xbd22d402	-0.039752968
190	0xbdbbe3d2	-0.09174313
191	0x3ce0bd4d	0.027434016
192	0x3d7e6200	0.06210518
193	0xbd917625	-0.071026124
194	0xbd4c4d5c	-0.049878463
195	0xbdbd719c	-0.09250185
196	0x3c4c0cdf	0.012454241
197	0xbd796fcd	-0.060897637
198	0xbd79c91f	-0.06098282
199	0x3db0bc57	0.08629673
200	0xbb4f4462	-0.0031626453
201	0x3e0c7738	0.13717353
202	0x3cc1f065	0.0236742
203	0xbc64ffae	-0.013976974
204	0xbcf1fc6a	-0.029539306
205	0x3c607587	0.013699896
206	0x3dcc81ce	0.09985696
207	0xbd80f6d8	-0.06297082
208	0xbcd5d997	-0.026104731
209	0x3e0baf70	0.13641143
210	0xbd0fde93	-0.035124373
211	0x3c519475	0.012791743
212	0x3e0c6e32	0.13713911
213	0x3d0352d6	0.03206142
214	0x3dff9bef	0.12480914
215	0xbdd48602	-0.103771225
216	0xbc878ca8	-0.016546562
217	0x3dfe612d	0.124208786
218	0x3dd26be1	0.102744825
219	0xbdcfd3e4	-0.10147837
220	0xbbc418dd	-0.0059844092
221	0xbddca1ec	-0.10773072
222	0x3db9473c	0.0904679
223	0xbdafc835	-0.08583108
224	0x3e03e519	0.12880363
225	0xbc9a3b13	-0.018826997
226	0xbd8abf67	-0.06774788
227	0x3d9b2869	0.07576067
228	0x3b06eaf7	0.0020586827
229	0x3d6ab123	0.057297837
230	0x3c9fe61a	0.0195189
231	0x3ca8467d	0.020541424
232	0xbd83ebfe	-0.06441496
233	0xbd751d32	-0.059842296
234	0x3cacdcce	0.021101382
235	0x3be3540c	0.0069375094
236	0x3daf8e02	0.08572008
237	0x3bb0990b	0.005389338
238	0x3c7783ce	0.015107108
239	0x3daffeff	0.085935585
240	0xbd69c366	-0.057071112
241	0x3daa185a	0.08305426
242	0xbda5a63d	-0.08088348
243	0xbd7029b0	-0.058633506
244	0xbcb53488	-0.022119775
245	0x3ce3c583	0.027804142
246	0xbdc6a43f	-0.09699296
247	0xbdced2a2	-0.10098769
248	0xbd847eda	-0.064695075
249	0xbd6aea31	-0.05735225
250	0xbd0144d5	-0.031559784
251	0x3da40662	0.0800903
252	0x3d8d7d03	0.0690861
253	0x3d1c89cd	0.038217355
254	0x3c9e7d2d	0.019346798
255	0x3e0127b7	0.12612806

rnn.bias_hh_l0 f4 [256]
0	0x3da64d24	0.08120182
1	0x3c0e50a5	0.008686219
2	0xbdda5d69	-0.10662348
3	0x3dc6cddd	0.09707234
4	0x3dd00347	0.10156875
5	0xbda8eedc	-0.08248684
6	0x3c449948	0.011999436
7	0x3aa93afc	0.0012911255
8	0xbd9dde94	-0.07708469
9	0xbc822905	-0.0158887
10	0x3cbab812	0.02279285
11	0x3e14f797	0.14547573
12	0x3db46435	0.088081755
13	0xbdb726e9	-0.089429684
14	0x3de05100	0.109529495
15	0xbdc5e4c6	-0.09662776
16	0x3c5aefc6	0.0133628305
17	0xbdaaea56	-0.08345477
18	0xbb5541d8	-0.0032540467
19	0xbd5020c2	-0.05081249
20	0xbdca32ff	-0.09873008
21	0xbd32eded	-0.043683935
22	0x3d70ca86	0.05878689
23	0x3d68b541	0.056813482
24	0x3dd3a2f0	0.10333812
25	0x3da2fa27	0.07957869
26	0x3dc67043	0.09689381
27	0x3c8945b7	0.016756875
28	0x3c8343f1	0.016023608
29	0x3dce7679	0.100811906
30	0x3d93da79	0.07219405
31	0x3d8140a3	0.063111566
32	0xbc9bf499	-0.019037532
33	0xbd8fb863	-0.07017591
34	0xbc4ed700	-0.012624502
35	0x3d827173	0.06369295
36	0x3dfda08f	0.1238414
37	0xbd312d28	-0.043255955
38	0x3d6de356	0.058078133
39	0xbdeda7af	-0.11604249
40	0xbdb2fc92	-0.0873958
41	0x3c7cb96f	0.01542507
42	0xbd9800b9	-0.07422013
43	0x3dc68756	0.09693782
44	0x3c983fa8	0.018585041
45	0xbbfc4a48	-0.0076992847
46	0x3d83fc98	0.06444663
47	0x3d5b893a	0.053597666
48	0xbceabe63	-0.028655237
49	0xbd908a3d	-0.07057617
50	0xbd8ae5b2	-0.06782092
51	0xbd77177f	-0.060325142
52	0xbb455948	-0.003011303
53	0x3dbcc828	0.09217864
54	0x3d23a900	0.039956093
55	0xbdd90765	-0.105971135
56	0x38d5bec4	0.00010192164
57	0x3dfab557	0.12241619
58	0x3c79165b	0.015203084
59	0x3db9bd6c	0.090693325
60	0xbd9b384c	-0.07579097
61	0x3d8b341a	0.06797047
62	0xbc904586	-0.017611276
63	0xbdbab921	-0.09117342
64	0xbd2e0ce2	-0.042492755
65	0xbdb6403a	-0.08898969
66	0x3dbbfc08	0.091789305
67	0x3bdae3b4	0.0066799764
68	0x3dd2cabd	0.102925755
69	0x3de12c49	0.10994775
70	0x3db73afb	0.089467965
71	0xbd2ba893	-0.04190881
72	0x3ddb346a	0.107033566
73	0xbc68de7c	-0.014213201
74	0x3d71fe3b	0.059080344
75	0x3c0f488a	0.008745322
76	0xbe044f3d	-0.12920852
77	0x3cb4c5f2	0.022067044
78	0x3d0ed428	0.034870297
79	0x3da87e6f	0.0822724
80	0x3cc1cf65	0.023658464
81	0xbc9fa01d	-0.019485528
82	0x3dd1d990	0.10246575
83	0x3c479ca3	0.012183341
84	0x3d39f2be	0.045397513
85	0xbdceefc6	-0.10104327
86	0x3d073cfe	0.03301715
87	0x3d8583bf	0.06519269
88	0xbdd41aa6	-0.10356645
89	0x3cee659a	0.029101182
90	0xbd8d371c	-0.06895277
91	0x3d293ff4	0.041320756
92	0x3ddc953e	0.10770653
93	0x3d9ed228	0.07754928
94	0x3d077616	0.0330716
95	0xbd8ea0e8	-0.06964284
96	0x3db4042a	0.08789857
97	0x3ca8dff9	0.020614611
98	0x3ca20cb0	0.01978144
99	0x3d46ac35	0.048504073
100	0xbde4d514	-0.11173454
101	0x3dcf472d	0.101209976
102	0xbdaa9329	-0.0832885
103	0xbd1a7265	-0.03770675
104	0xbdb6cd05	-0.08925823
105	0x3de730e4	0.11288622
106	0xbcea072f	-0.028567879
107	0x3dd40135	0.10351793
108	0xbbb0c2ef	-0.0053943316
109	0xbde70eac	-0.11282095
110	0x3d037477	0.03209349
111	0xbd68647c	-0.056736454
112	0xbda56a43	-0.080769084
113	0x3daf2dd1	0.08553661
114	0x3c635fe8	0.013877846
115	0xbc8dd957	-0.01731555
116	0x3c222a5d	0.0098977955
117	0x3c40e1ad	0.011772555
118	0x3da93195	0.0826141
119	0x3dd611f8	0.10452646
120	0xbdac479f	-0.08412098
121	0x3cf539b5	0.029934743
122	0x3d9468d1	0.07246555
123	0x3df9e575	0.122019686
124	0x3df094fe	0.11747168
125	0xbdf380dc	-0.11889812
126	0x3dc248e1	0.09486557
127	0x3dc19531	0.09452284
128	0xbd2eeb5f	-0.042704936
129	0xbda1ef49	-0.07906968
130	0xbdaf35e1	-0.085551985
131	0x3c9eed32	0.019400213
132	0xbdc759a1	-0.09733892
133	0x3dc87c1f	0.09789299
134	0x3db84959	0.08998365
135	0xbd2d99f8	-0.042383164
136	0xbdd30f77	-0.10305684
137	0xbc81b18f	-0.015831737
138	0xbd025b7e	-0.031825535
139	0x3be7b35e	0.007070943
140	0x3ddf6dff	0.10909652
141	0xbd060c78	-0.032726735
142	0xbda3f838	-0.08006328
143	0x3d348173	0.044068765
144	0x3df03460	0.1172874
145	0x3d875193	0.06607356
146	0x3c4f3cd7	0.012648783
147	0xbdf17382	-0.117896095
148	0x3df843cc	0.12122306
149	0xbd860782	-0.06544401
150	0x3d4eb386	0.050464176
151	0xbdb4ac5e	-0.08821939
152	0x3c294055	0.010330279
153	0x3dcd9a4b	0.10039195
154	0xbd9d076a	-0.0766743
155	0xbd630d46	-0.05543258
156	0xbd12fbfe	-0.03588485
157	0xbd070252	-0.032961197
158	0xbe089bd0	-0.13340688
159	0xbbf08e7f	-0.0073412056
160	0xbbf3d55e	-0.007441207
161	0x3de01d9a	0.10943146
162	0x3d811b4e	0.06304036
163	0xbd7a3fa8	-0.061095864
164	0x3d17df9e	0.037078492
165	0x3d4d750f	0.050160464
166	0x3da8ae20	0.08236337
167	0x3cc7a1ac	0.024369083
168	0x3d59f48f	0.053211745
169	0x3d48502c	0.048904583
170	0x3c80ca3e	0.015721437
171	0xbd1e4494	-0.03863962
172	0x3daf8d70	0.08571899
173	0xbd0161f2	-0.03158755
174	0xbc857fa3	-0.016296213
175	0x3dadbef9	0.08483691
176	0x3d170fc6	0.036880277
177	0xbd4a4dff	-0.04939079
178	0x3ce5780d	0.028011346
179	0xbdd9ca07	-0.10634237
180	0xbc1c7306	-0.009548908
181	0xbdb5f6ea	-0.08884986
182	0xbdaefe2e	-0.08544575
183	0xbdb63176	-0.08896153
184	0xbdf9c4c0	-0.1219573
185	0xbd22fbf9	-0.03979108
186	0x3d7987b9	0.06092045
187	0xbdc4accc	-0.09603271
188	0xbdb47822	-0.08811976
189	0x3d8e49f4	0.06947699
190	0xbdde2d7a	-0.10848518
191	0x3d53667a	0.0516114
192	0xbc69f09d	-0.014278558
193	0xbd8a93e3	-0.067664884
194	0x3d524d70	0.05134338
195	0xbd9e76c8	-0.077374995
196	0x3db542e9	0.08850653
197	0x3da03fd0	0.07824671
198	0x3da84fed	0.0821837
199	0x3dbb894f	0.09157049
200	0xbda73088	-0.081635535
201	0x3ce221be	0.02760398
202	0xbc80a9b5	-0.015705923
203	0x3dc6c0b5	0.09704725
204	0x3df89291	0.1213733
205	0xbdc17c5b	-0.09447547
206	0xbb06b2ba	-0.0020553307
207	0xbdefac44	-0.11702779
208	0xbcf3a99f	-0.029743968
209	0xbb0a6c2d	-0.0021121607
210	0x3d406bb4	0.046977714
211	0x3cbb654c	0.02287545
212	0xbb4e221c	-0.0031453436
213	0x3d405772	0.046958394
214	0xbd931d3d	-0.07183311
215	0x3db3dfe8	0.08782941
216	0xbe023286	-0.12714586
217	0x3db4ea77	0.08833783
218	0x3c10b990	0.008833304
219	0xbdbe772a	-0.093000725
220	0x3d7a73aa	0.061145462
221	0x3dc142aa	0.09436543
222	0x3e00adda	0.12566319
223	0xbca87b47	-0.020566596
224	0xbd34bcfe	-0.04412555
225	0xbd49b487	-0.04924443
226	0xbd97fbb7	-0.07421058
227	0x3c4a2e7b	0.012340183
228	0x3dd51a42	0.10405399
229	0xbc987edc	-0.018615179
230	0x3bf634c4	0.0075136144
231	0xbdac58aa	-0.08415349
232	0x3deaf3dc	0.11472294
233	0x3db3670e	0.087598905
234	0xbdb316bd	-0.08744571
235	0x3d9fa072	0.077942744
236	0x3cbb7245	0.022881636
237	0x3c9da962	0.019245807
238	0x3df73ea3	0.12072494
239	0xbc39c76a	-0.011339048
240	0x3ccf89b5	0.025334219
241	0xbdb8dd10	-0.09026539
242	0x3b05f6fb	0.0020441401
243	0x3d9b77d3	0.07591214
244	0xbc2f8451	-0.010712699
245	0x3cf03dfb	0.02932643
246	0x3d8adc64	0.067803174
247	0x3d1193ba	0.035541274
248	0x39ce80bc	0.00039387296
249	0xbb4cd8d7	-0.0031257176
250	0x3db1464e	0.08655988
251	0xbd81fd8e	-0.0634719
252	0xbcabac8b	-0.020956298
253	0x3e022924	0.12711006
254	0xbd14dac4	-0.036341444
255	0xbd22f192	-0.03978116

rnn.weight_ih_l0_reverse f4 [256, 100]
0	0xbdcd8f87	-0.10037141
1	0xbd204755	-0.039130528
2	0xbce3d13f	-0.027809737
3	0xbe06a012	-0.13147
4	0x3dcd14f4	0.10013762
5	0x3dfc566e	0.12321173
6	0x3da69133	0.08133163
7	0x3dcd890e	0.10035907
8	0x3d86c2cd	0.06580124
9	0x3d3155f6	0.04329487
10	0x3d9d19d7	0.07670944
11	0x3ddbbc98	0.10729331
12	0x3c9d5ab2	0.019208286
13	0x3ddd4d7c	0.108057946
14	0xbd144819	-0.03620157
15	0xbd6e18e9	-0.058129225
16	0x3bd49754	0.0064877663
17	0xbdc740d9	-0.097291656
18	0xbda6564d	-0.08121929
19	0xbd39b3cd	-0.045337487
20	0xbd568d3e	-0.052380793
21	0xbcbab2d5	-0.022790352
22	0x3dd44322	0.10364367
23	0x3e01a2eb	0.12659805
24	0x3da3c0b2	0.07995738
25	0xbd1d5a3b	-0.03841613
26	0x3daf0e9a	0.08547707
27	0x3cc43dea	0.023955304
28	0xbd97d2b7	-0.074132375
29	0xbdb03a0c	-0.086048216
30	0xbdbf66e9	-0.093458004
31	0xbda5e43b	-0.08100172
32	0x3ddd2bed	0.10799394
33	0x3c66cdf8	0.014087193
34	0xbde994e2	-0.1140535
35	0x3dace5f8	0.084423006
36	0xbd39da5c	-0.04537426
37	0xbd1f627a	-0.038912274
38	0xbd67b09b	-0.05656491
39	0xbddaa4e5	-0.106759824
40	0x3dcccec0	0.10000372
41	0x3c6fbb71	0.014632092
42	0x3dae25e0	0.08503318
43	0x3b9f291b	0.004857195
44	0xbc4e33d1	-0.012585596
45	0xbd80a90e	-0.062822446
46	0xbdcc471a	-0.09974499
47	0x3daac379	0.08338065
48	0xbcd7d735	-0.026347736
49	0xbe10c8ff	-0.14139174
50	0xbbae12d5	-0.0053123035
51	0x3da3377d	0.07969568
52	0x3db1f390	0.08689034
53	0xbd92427e	-0.07141589
54	0xbda1acda	-0.07894297
55	0x3d08f520	0.033436894
56	0xbc91f594	-0.017817296
57	0xbd9bcda4	-0.07607582
58	0xbcd07a14	-0.025448836
59	0x3bd15b19	0.0063890335
60	0x3d789e96	0.060698114
61	0x3d24f5a8	0.04027334
62	0xbd97e9a8	-0.07417613
63	0x3bbdffa1	0.0057982956
64	0x3daa6b55	0.08321253
65	0xbb7bc13f	-0.0038414744
66	0xbdf2d310	-0.11856663
67	0x3d2e28b4	0.042519286
68	0xbdec7fe1	-0.115478285
69	0x3dd9c797	0.10633772
70	0x3d95c740	0.073133945
71	0xbdb7675b	-0.0895526
72	0xbd2e1e15	-0.042509157
73	0xbd8643d6	-0.065559074
74	0xbdae7460	-0.085182905
75	0x3d9bc64d	0.07606182
76	0xbd4b9299	-0.049700353
77	0xbddf47f4	-0.10902396
78	0xbde08ce2	-0.10964371
79	0x3d9a2cc9	0.07528073
80	0xbd8ee124	-0.06976536
81	0xbdb7ec95	-0.08980671
82	0xbd915bb6	-0.070975706
83	0x3dc235c7	0.094829135
84	0xbe04f331	-0.12983395
85	0x3c3de08b	0.01158918
86	0xbcfb3a58	-0.030667469
87	0xbdb6884c	-0.08912715
88	0xbd30f9e2	-0.043207057
89	0x3d55d051	0.05220062
90	0x3ce27e04	0.02764798
91	0xbd12619b	-0.035737615
92	0x3d6efda7	0.05834737
93	0xbd5a4aff	-0.053294178
94	0xbe0e56ed	-0.13900347
95	0x3da58d3b	0.08083578
96	0xbc388c50	-0.011263922
97	0x3dbb1a0f	0.0913583
98	0xbd09e4e1	-0.03366554
99	0xbc707cef	-0.014678224
100	0xbdcb1225	-0.0991557
101	0xbdd0498c	-0.10170278
102	0x3db8828c	0.09009275
103	0x3d1aa927	0.037758972
104	0x3d2e60f9	0.04257295
105	0x3d1a4ff0	0.03767389
106	0xbd7ac42d	-0.061222244
107	0xbb81fe36	-0.003967072
108	0xbe0265fe	-0.1273422
109	0x3dc1b50b	0.09458359
110	0xbcaf8f1a	-0.02143054
111	0x3da7a42c	0.0818561
112	0x3c0f499c	0.008745577
113	0x3cc9b8a9	0.024624186
114	0xbc9378da	-0.018001962
115	0xbd56629c	-0.052340135
116	0xbd343b74	-0.04400201
117	0xbcdd8c2b	-0.027044376
118	0x3cb8f4ca	0.022577662
119	0x3d1d560c	0.03841214
120	0xbdb38583	-0.087657
121	0xbad18d33	-0.0015987515
122	0xbd18aa3e	-0.03727173
123	0xbd8f5bc5	-0.069999255
124	0x3d5f4295	0.054506857
125	0x3c14e236	0.009087136
126	0xbb62e29a	-0.0034619928
127	0xbcfed589	-0.03110768
128	0x3c063313	0.008190888
129	0xbd7f2932	-0.062295146
130	0xbd9eb6fd	-0.07749746
131	0x3da34000	0.079711914
132	0x3da96702	0.082716
133	0xbd8a8471	-0.067635424
134	0x3dcb03bf	0.09912824
135	0x3d738b21	0.059458856
136	0x3cba130e	0.022714164
137	0xbc96aef2	-0.018393967
138	0xbdbf280d	-0.09333811
139	0xbd65c357	-0.056094494
140	0xbe061316	-0.13093218
141	0xbd0fed9d	-0.035138715
142	0xbd9d3434	-0.076759726
143	0xbcafb3b2	-0.02144799
144	0xbd62b226	-0.055345677
145	0xbd188c6c	-0.03724329
146	0x3d970c40	0.073753834
147	0x3d9d1f24	0.07671955
148	0x39adab66	0.00033124833
149	0x3d6b4c3e	0.057445757
150	0xbe02d288	-0.12775624
151	0xbd9d7de8	-0.0769003
152	0xbe09958f	-0.13435958
153	0xbd7302fd	-0.05932902
154	0x3c8781a5	0.016541312
155	0xbda23c2f	-0.07921635
156	0xbd97d245	-0.074131526
157	0x3df4014f	0.11914312
158	0x3cebcd35	0.028784374
159	0x3c194e89	0.009357103
160	0xbc64d492	-0.013966696
161	0xbe145afd	-0.14487834
162	0xbddce764	-0.10786322
163	0x3d464d09	0.04841331
164	0xbdb5c52c	-0.08875498
165	0x3d056e30	0.032575786
166	0xbace8d3e	-0.0015758646
167	0x3deaff3e	0.11474465
168	0xbda386a5	-0.07984666
169	0xbd470810	-0.048591673
170	0xbd31853e	-0.04333996
171	0x3cd799e4	0.026318498
172	0xbdd67453	-0.10471406
173	0xbd8009fd	-0.06251905
174	0xbddcdb9d	-0.107840754
175	0x3c845ceb	0.016157588
176	0x3d477ad3	0.04870112
177	0xbd458a76	-0.04822775
178	0x3e00011a	0.1250042
179	0xbd694a71	-0.05695576
180	0x3d7d8c94	0.061901644
181	0xbd113374	-0.03544946
182	0xbcc50bcc	-0.024053477
183	0x3d983b0a	0.07433136
184	0xbc2eb3c5	-0.010662978
185	0x3da869b5	0.08223287
186	0x3dcd5d69	0.10027582
187	0x3c211897	0.009832523
188	0x3c330b73	0.010928023
189	0xbd9d16fc	-0.076703995
190	0x3d0ce638	0.03439924
191	0x3de0fd05	0.1098576
192	0xbba8c4f0	-0.00515043
193	0x3ddd2822	0.1079867
194	0x3dadbf66	0.08483772
195	0x3bbc7c1a	0.0057520987
196	0x3d235538	0.039876193
197	0xbe060e79	-0.13091458
198	0xbb6e9bad	-0.0036408708
199	0xbddef1aa	-0.108859375
200	0xbdad1833	-0.08451881
201	0x3cc874af	0.024469702
202	0xbdafc14e	-0.08581792
203	0xbd47b780	-0.048758984
204	0xbc9cce99	-0.019141482
205	0xbc15663d	-0.009118614
206	0xbdb315dd	-0.087444045
207	0x3d68fcfc	0.05688189
208	0x3df63663	0.12022092
209	0xbca17c1e	-0.019712504
210	0x3d1693c1	0.036762003
211	0xbde80556	-0.11329143
212	0xbce55289	-0.027993457
213	0x3d7d524e	0.06184607
214	0xbcb8816f	-0.022522656
215	0xbbbce404	-0.0057644863
216	0xbde04901	-0.109514244
217	0x3dfff9b7	0.12498801
218	0x3dd47fc8	0.10375935
219	0xbd11b733	-0.035575103
220	0x3d095972	0.033532567
221	0x3d81d806	0.06340031
222	0xbd18f546	-0.037343286
223	0x3d67b3b2	0.056567855
224	0xbd5f625b	-0.05453716
225	0xbd146315	-0.036227304
226	0x3dd5ea4e	0.10445081
227	0x3c0524a4	0.008126412
228	0x3d774bab	0.060374897
229	0xbdce7cb2	-0.100823775
230	0x3d752fad	0.05985992
231	0x3cae7efb	0.021300783
232	0xbd0d83db	-0.034549575
233	0x3d1cab36	0.038249217
234	0xbcd95452	-0.026529465
235	0x3d6b32c8	0.057421476
236	0x3dd989cf	0.10621988
237	0x3de5691c	0.11201689
238	0xbddd1e0f	-0.10796749
239	0xbd14fea8	-0.03637567
240	0x3d545cda	0.051846363
241	0xbc6ca082	-0.014442565
242	0xbd9add91	-0.07561792
243	0x3df3b7f3	0.1190032
244	0x3d980912	0.07423605
245	0x3e0efe33	0.13964157
246	0x3d81862c	0.063244194
247	0x3d2e3efc	0.042540535
248	0xbce3a0c3	-0.027786618
249	0xbd27e004	-0.040985122
250	0xbc83b1c1	-0.01607597
251	0xbca6f142	-0.020378713
252	0x3dedaf5f	0.11605715
253	0xbca75f10	-0.020431072
254	0x3bd68b36	0.006547357
255	0xbe08ef1b	-0.13372461

rnn.weight_hh_l0_reverse f4 [256, 64]
0	0x3dd91d89	0.106013365
1	0xbd1e1d31	-0.038602058
2	0x3d0f8b4e	0.03504496
3	0xbdd02421	-0.10163141
4	0x3c947784	0.018123396
5	0xbd05f994	-0.03270872
6	0x3dbcf782	0.09226896
7	0xbd004841	-0.031318907
8	0x3d8f05de	0.06983541
9	0xbcec96b9	-0.028880464
10	0x3d93072f	0.071791045
11	0xbd386833	-0.045021247
12	0xbd9314c9	-0.07181699
13	0x3dc5cac8	0.09657818
14	0xbd9781e1	-0.07397819
15	0xbd49c7d9	-0.049262855
16	0xbdbec2f4	-0.09314528
17	0x3d644df3	0.0557384
18	0xbc4cdeb1	-0.012504266
19	0x3dfc8327	0.12329703
20	0x3d060c59	0.03272662
21	0x3c388d44	0.011264149
22	0x3c775bbc	0.015097555
23	0xbd857fae	-0.065184936
24	0x3dbe64d4	0.09296575
25	0x3d793bd7	0.060848083
26	0xbdea892b	-0.11451944
27	0x3dc7bfc8	0.09753376
28	0xbd40d671	-0.047079507
29	0x3d9b7080	0.07589817
30	0xbda70359	-0.081549354
31	0x3c7bb301	0.015362502
32	0xbd61ef55	-0.055159885
33	0xbd483f89	-0.048888717
34	0x3d99e234	0.07513848
35	0x3ddc24f6	0.10749237
36	0xba875db8	-0.0010327613
37	0x3cee2f77	0.029075367
38	0xbe02f005	-0.12786873
39	0x3d521df8	0.05129811
40	0x3d018b9a	0.031627275
41	0xbdefe5dd	-0.11713765
42	0x3b8c1de8	0.004276026
43	0x3ce63e89	0.028105991
44	0xbdf259e8	-0.118335545
45	0xbd313db4	-0.043271735
46	0x3d9f626c	0.07782444
47	0x3d8cd6fb	0.06876942
48	0xbc938b93	-0.01801089
49	0xbbdb89b5	-0.0066997656
50	0x3cf9a9e8	0.030476525
51	0x3d6d9c96	0.05801066
52	0x3d864c69	0.06557543
53	0x3d7ca3f7	0.061679807
54	0x3dc2092e	0.09474407
55	0xbe05ae2f	-0.13054727
56	0x3ba353ab	0.0049843392
57	0x3db980a9	0.09057743
58	0xbe073824	-0.1320501
59	0xbdd68ecc	-0.10476455
60	0xbd8ee2e3	-0.06976869
61	0x3cf262ce	0.02958813
62	0x3e022f54	0.12713367
63	0x3c8c362b	0.017115673
64	0x3d3594bd	0.0443313
65	0xbc960d09	-0.018316763
66	0x3dcc1123	0.09964206
67	0x3d18543c	0.037189707
68	0x3d8aba8e	0.06773864
69	0x3dbe540f	0.09293377
70	0xbdc22015	-0.094787754
71	0xbd0e5b99	-0.034755323
72	0x3d8ea20f	0.06964504
73	0xbc99b897	-0.018764777
74	0xbdae89fe	-0.08522414
75	0xb8ae4e61	-8.311566e-05
76	0x3d9089ad	0.070575096
77	0xbd673ed0	-0.056456387
78	0xbd8354ca	-0.064126566
79	0xbc9af36b	-0.018914899
80	0x3d887d27	0.06664496
81	0x3d7afd88	0.061276942
82	0x3d73071e	0.05933296
83	0x3d87408b	0.066041075
84	0xbca9ffc8	-0.020751849
85	0xbdd3d786	-0.10343842
86	0x3de75ef0	0.11297405
87	0xbe00af08	-0.12566769
88	0x3d64b54f	0.05583697
89	0xbdc2f5b6	-0.09519522
90	0xbd8e5f39	-0.06951756
91	0xbe0a2dae	-0.13493988
92	0x3db67cca	0.089105204
93	0xbdada43e	-0.08478592
94	0xbe13b48f	-0.14424346
95	0xbc83b32f	-0.016076652
96	0xbbd898e3	-0.0066100224
97	0x3b9cf5d8	0.004790049
98	0xbca5cfa2	-0.020240609
99	0xbdedb10a	-0.11606033
100	0x3dae512c	0.08511576
101	0xbdeac03d	-0.11462448
102	0x3d0fda07	0.035120036
103	0xbdac671e	-0.084181055
104	0x3dd24d91	0.10268701
105	0xbd99b31b	-0.07504865
106	0xbddcfb98	-0.10790175
107	0xbd7828a5	-0.060585637
108	0xbdb8386b	-0.08995136
109	0x3dc63df1	0.09679783
110	0x3db67403	0.08908846
111	0x3e137097	0.14398418
112	0xbdc4d960	-0.096117735
113	0x3ca4b438	0.020105466
114	0xbbea0039	-0.00714114
115	0x3d98664e	0.07441388
116	0xbd7dfa57	-0.06200632
117	0xbdfec832	-0.12440528
118	0xbdb022c2	-0.086003795
119	0xbdbed6fd	-0.093183495
120	0x3df54ae6	0.11977176
121	0xbdddb0cd	-0.10824738
122	0xbdf1b8ae	-0.11802803
123	0xbd8acd43	-0.06777432
124	0xbdb1f37a	-0.086890176
125	0xbcc59aa7	-0.024121596
126	0xbc098410	-0.008393303
127	0x3dc72826	0.097244546
128	0x3dcec359	0.10095853
129	0xbe081994	-0.13291007
130	0x3df5d9a1	0.120044
131	0x3d6e5c3a	0.058193423
132	0xbd914be6	-0.070945546
133	0xbdd1cd0e	-0.10244189
134	0x3d10516a	0.035233893
135	0xbdd3179b	-0.10307237
136	0xbdc472ca	-0.09592207
137	0xbd4aa6ae	-0.049475364
138	0xbd4e6923	-0.050393235
139	0x3d8e6aee	0.06953989
140	0xbd2c9c01	-0.042140964
141	0xbc25de72	-0.010123836
142	0x3dc8c973	0.098040484
143	0x3c8f0075	0.017456273
144	0xbe00dccb	-0.12584226
145	0x3d87e1a9	0.06634838
146	0x3de523d3	0.111884736
147	0x3d1aa1c4	0.037751928
148	0x3cba8e6f	0.022772996
149	0x3d3096cd	0.043112565
150	0xbb6bd0ea	-0.0035982677
151	0x3cf1b7e7	0.029506637
152	0x3df2c45d	0.118538596
153	0x3cec9017	0.028877301
154	0xbd64449f	-0.055729505
155	0xbdd11f19	-0.102110095
156	0xbd889696	-0.06669347
157	0xbdbdadec	-0.092616886
158	0xbd9ad7b7	-0.075606756
159	0xbdd7a359	-0.10529203
160	0xbdd08dd2	-0.101833
161	0xbd67939d	-0.05653726
162	0x3dc335c8	0.09531742
163	0xbdbb305f	-0.091400854
164	0x3d9059b4	0.070483595
165	0x3d197dff	0.037473675
166	0xbbf0b549	-0.0073458296
167	0xbd2ee014	-0.042694166
168	0x3c2ef6bf	0.010678946
169	0x3d0616a1	0.032736424
170	0x39a88526	0.0003214266
171	0xbe0b73ca	-0.13618389
172	0x3d8048b2	0.062638655
173	0xbd98f4fb	-0.07468601
174	0xbdd045fb	-0.10169598
175	0xbd823574	-0.063578516
176	0x3df79edd	0.12090848
177	0xbb478d55	-0.003044923
178	0xbb7aeaa7	-0.0038286836
179	0x3d555399	0.052081678
180	0xbda566ad	-0.080762245
181	0xbb70a3bc	-0.0036718687
182	0x3de27db0	0.11059129
183	0x3d95ee14	0.073208004
184	0xbd152db0	-0.036420524
185	0xbddba80d	-0.107254125
186	0xbdc98122	-0.09839083
187	0x3d2dddd0	0.042447865
188	0xbc2915d3	-0.010320145
189	0xbd0fbe90	-0.035093844
190	0xbcce4880	-0.025181055
191	0x3d508f2b	0.050917786
192	0x3ce7675f	0.028247533
193	0x3c84b85d	0.016201193
194	0xbd7cfa48	-0.061762124
195	0xbb9555ab	-0.0045573316
196	0x3cc2fbae	0.02380165
197	0x3d638b1d	0.05555259
198	0xbdae1953	-0.08500924
199	0x3d017a09	0.031610522
200	0x3af53963	0.0018709119
201	0x3b8722bc	0.0041240137
202	0xbdc4d7cc	-0.096114725
203	0x3d5a2976	0.053262196
204	0x3d475370	0.048663557
205	0xbcee256d	-0.02907058
206	0x3c1dd794	0.009633917
207	0x3dd3ffd2	0.10351528
208	0x3ce0007e	0.027343985
209	0x3c885db1	0.016646238
210	0x3cfd34fd	0.030909056
211	0x3db1ccc1	0.08681632
212	0x3d79ae27	0.0609571
213	0xbd6acfc8	-0.057327062
214	0x3e001421	0.12507679
215	0x3d8009ba	0.06251855
216	0xbdc965bf	-0.0983386
217	0x3c57c001	0.013168336
218	0x3c9cad30	0.019125551
219	0x3d4dac34	0.050213054
220	0x3cbf149d	0.023325259
221	0x3d9f04e4	0.07764605
222	0xbdc7054e	-0.09717809
223	0x3d4e63f2	0.050388284
224	0x3c48d2dd	0.012257305
225	0xbdb6aaa7	-0.08919268
226	0x3d90ee91	0.07076753
227	0x3d935238	0.07193416
228	0xbdd341a8	-0.10315257
229	0x3d6fbceb	0.058529776
230	0xbcd880a9	-0.026428537
231	0xbd2b5c3f	-0.04183602
232	0xbdba210e	-0.09088336
233	0xbdaa59f9	-0.08317942
234	0x3a4367f1	0.0007454148
235	0x3cabf23d	0.020989532
236	0xbd576370	-0.052585065
237	0x3d843bf9	0.064567514
238	0x3d4e6a24	0.050394192
239	0xbdb732c3	-0.08945229
240	0x3d0be071	0.03414959
241	0x3b0a2010	0.002107624
242	0xbbb7e100	-0.005611539
243	0x3db05c5d	0.08611367
244	0x3dad8ade	0.084737524
245	0xbe035284	-0.12824446
246	0x3c8a19d4	0.016858019
247	0xbc91341d	-0.017725045
248	0xbdb2d02a	-0.087311104
249	0x3dcc4f0c	0.099760145
250	0xbde3a793	-0.111159466
251	0xbd9d3dde	-0.07677816
252	0x3dcaf3a8	0.09909755
253	0x3bee5e00	0.0072743893
254	0xbdc29202	-0.09500505
255	0x3bd6077c	0.006531654
